$ python3 ConvolutionalNetworks.py 2

[INFO] Using Tensorflow version: 2.2.0
[INFO] Number of GPUs available: 1
[INFO] Train set shapes: (50000, 28, 28, 1) (50000,)
[INFO] Validation set shapes: (10000, 28, 28, 1) (10000,)
[INFO] Test set shapes: (10000, 28, 28, 1) (10000,)
Model: "sequential"
_________________________________________________________________
Layer (type)                 Output Shape              Param #
=================================================================
conv2d (Conv2D)              (None, 28, 28, 20)        200
_________________________________________________________________
batch_normalization (BatchNo (None, 28, 28, 20)        80
_________________________________________________________________
max_pooling2d (MaxPooling2D) (None, 14, 14, 20)        0
_________________________________________________________________
conv2d_1 (Conv2D)            (None, 14, 14, 30)        5430
_________________________________________________________________
batch_normalization_1 (Batch (None, 14, 14, 30)        120
_________________________________________________________________
max_pooling2d_1 (MaxPooling2 (None, 7, 7, 30)          0
_________________________________________________________________
conv2d_2 (Conv2D)            (None, 7, 7, 50)          13550
_________________________________________________________________
batch_normalization_2 (Batch (None, 7, 7, 50)          200
_________________________________________________________________
max_pooling2d_2 (MaxPooling2 (None, 4, 4, 50)          0
_________________________________________________________________
flatten (Flatten)            (None, 800)               0
_________________________________________________________________
dense (Dense)                (None, 10)                8010
=================================================================
Total params: 27,590
Trainable params: 27,390
Non-trainable params: 200
_________________________________________________________________

[INFO] No model file is given, proceed to training
Epoch 1/100
7/7 [==============================] - 1s 209ms/step - loss: 1.5827 - accuracy: 0.5749 - val_loss: 2.3016 - val_accuracy: 0.1131
Epoch 2/100
…
